mediapipe_crop_estimate/mlp/center.pt (torch, 11213 bytes, 6 tensors)

weight f4 [10, 19]
0	0x3d3e21ff	0.04641914
1	0x3e57827b	0.21045868
2	0x39468818	0.0001893345
3	0x3ea9de75	0.33177534
4	0x3ecdaea6	0.4017231
5	0x3e0f7225	0.14008386
6	0x3db9c354	0.09070459
7	0xbdca0dde	-0.09865926
8	0xbd8e8b18	-0.06960124
9	0x3e97d58a	0.29655105
10	0xbe9eb964	-0.31000817
11	0xbd6009f0	-0.054696977
12	0x3d05b7f9	0.032646153
13	0xbca18efa	-0.019721497
14	0xbd7fc2d2	-0.062441655
15	0x3edfde8d	0.4372448
16	0xbeadc5dd	-0.3394002
17	0x3e164f07	0.14678584
18	0x3dfd836c	0.12378582
19	0x3dd99f10	0.10626042
20	0xbe9a741f	-0.30166718
21	0x3d9aaeda	0.075528815
22	0x3e48a551	0.19594313
23	0xbd1339f3	-0.035943937
24	0xbe9ecb37	-0.31014416
25	0x3da6203e	0.081116185
26	0xbeece003	-0.46264657
27	0xbe6bbeaf	-0.23021959
28	0xbd3af558	-0.045644134
29	0xbecabafe	-0.3959579
30	0x3cdc9376	0.026925784
31	0x3e439784	0.19100767
32	0xbeba3c78	-0.3637426
33	0x3c8f24f6	0.017473679
34	0xbb0be0b0	-0.002134364
35	0xbf0fd567	-0.56185
36	0xbe560c02	-0.20903018
37	0x3c04732c	0.0080841
38	0xbdb4f869	-0.08836443
39	0x3de25ed1	0.11053241
40	0x3e39933c	0.18122572
41	0xbe9bdcf2	-0.30442005
42	0x3e92270b	0.28545412
43	0xbdacaa60	-0.08430934
44	0x3d7444ae	0.05963581
45	0xbe282de6	-0.16423759
46	0x3d609109	0.054825816
47	0x3d611418	0.054950804
48	0x3e07e7cb	0.13272016
49	0x3d49475b	0.049140316
50	0xbe22dfa3	-0.15905623
51	0x3f2607b0	0.6485548
52	0x3e34026d	0.1757905
53	0x3e25b5db	0.16182654
54	0x3e81a978	0.25324607
55	0x3dc6dea3	0.09710433
56	0xbe51f1ab	-0.20502345
57	0xbb1891bd	-0.0023280226
58	0xbd04cb4b	-0.032420438
59	0x3d23ec9c	0.04002057
60	0xbbec9c9f	-0.007220819
61	0x3e56fbf2	0.20994547
62	0x3e62aa61	0.22135307
63	0x3db5a26b	0.088688694
64	0xbdc4b207	-0.096042685
65	0xbefc1256	-0.4923274
66	0xbe44a068	-0.19201815
67	0x3d73246b	0.059360903
68	0x3ec29b6c	0.38009202
69	0xbe597851	-0.21237303
70	0x3c943868	0.018093303
71	0x3ebb3b7c	0.3656882
72	0x3dab7859	0.08372564
73	0x3dd2e351	0.102972634
74	0x3eedafd6	0.46423215
75	0x3d7d00b3	0.061768245
76	0xbcaf36fb	-0.021388521
77	0x3d88a815	0.06672684
78	0x3e7e3ad7	0.24827133
79	0x3e1abf26	0.1511198
80	0x3d5c2e1e	0.05375492
81	0x3e5f12c4	0.21784502
82	0x3a4c256d	0.00077875593
83	0xbd62ded1	-0.055388276
84	0xbeedd671	-0.46452668
85	0xbdab7cd2	-0.08373417
86	0x3dba8439	0.09107251
87	0x3d66f968	0.056390196
88	0x3e0efd66	0.13963851
89	0x3eb9c672	0.36284214
90	0x3e5a54d8	0.21321428
91	0x3dfa6136	0.12225573
92	0xbdb642b8	-0.08899444
93	0x3edf543a	0.43618947
94	0xbe06e33d	-0.13172622
95	0x3e16f6c7	0.14742576
96	0xbd6f6abb	-0.058451395
97	0x3e63f3d0	0.22260976
98	0xbe74e39b	-0.2391495
99	0x3d15dfad	0.036590267
100	0x3d9f84dc	0.07789013
101	0x3df775af	0.12082993
102	0x3d1e95c3	0.038717043
103	0xbe05c582	-0.13063625
104	0xbe264f52	-0.16241196
105	0x3d984658	0.07435292
106	0x3ed64a65	0.41853634
107	0xbdca51c4	-0.09878877
108	0xbe8d5775	-0.27605787
109	0x3ee4e16c	0.44703233
110	0x3d85e02f	0.065369
111	0xbe925ce6	-0.285865
112	0x3ead77bf	0.33880422
113	0xbd97283b	-0.0738072
114	0x3dd006d1	0.1015755
115	0x3e08c744	0.13357264
116	0xbc1ef985	-0.009703045
117	0xbd6ad055	-0.057327587
118	0xbc9c03ab	-0.019044718
119	0xbd7043e6	-0.058658503
120	0x3d6f9d5f	0.05849969
121	0xbea2163e	-0.31657594
122	0xbe5a3c88	-0.21312153
123	0xbe2515ec	-0.16121644
124	0x3e8c6b87	0.27425787
125	0x3e79d893	0.24399023
126	0x3df67b82	0.12035276
127	0x3e1c4d2a	0.15263811
128	0x3ea0d278	0.31410575
129	0xbd9c8e07	-0.07644277
130	0xbe6a6a1c	-0.2289204
131	0x3e8ca0f1	0.2746654
132	0x3e0bc60b	0.13649766
133	0x3e80b656	0.2513911
134	0x3e1d04aa	0.1533381
135	0x3eaced96	0.33775014
136	0xbe678b53	-0.22611742
137	0x3e5fb576	0.21846566
138	0x3d5d436f	0.054019388
139	0x3def4c8f	0.11684524
140	0xbd5c7eb5	-0.053831775
141	0x3ee92791	0.45538
142	0xbe4755f5	-0.19466384
143	0x3c03801e	0.008026151
144	0xbeb43c2d	-0.3520216
145	0x3d344496	0.04401072
146	0x3d705138	0.058671206
147	0xbe99a30d	-0.3000721
148	0xbd9f7900	-0.07786751
149	0x3e3370ae	0.17523453
150	0xbe896e1e	-0.26841825
151	0xbd0a1aaf	-0.033716854
152	0xbdb1ed22	-0.086878076
153	0xbe142ae8	-0.14469492
154	0x3cad4313	0.021150148
155	0x3da9ea60	0.082966566
156	0xbed14873	-0.40875587
157	0x3d2625f4	0.04056354
158	0x3dded965	0.108813085
159	0xbc135a4b	-0.0089936955
160	0x3eb4a478	0.3528173
161	0xbc6cd5a4	-0.014455233
162	0x3ec989ad	0.3936285
163	0xbdb180b1	-0.08667124
164	0x3dcb731b	0.09934064
165	0x3ebeab33	0.3723999
166	0xbe97ef9d	-0.29674998
167	0xbdde24c8	-0.10846859
168	0x3f3c05a3	0.734461
169	0x3e3edee8	0.1863972
170	0xbdde8509	-0.10865218
171	0x3e5994dd	0.21248193
172	0xbd7009c2	-0.058603056
173	0x3bf6fa75	0.007537181
174	0xbd913e75	-0.07091991
175	0xbdb43e15	-0.08800904
176	0xbe05b710	-0.13058114
177	0xbccc0983	-0.02490688
178	0xbe217139	-0.15765847
179	0xbd2e9aa5	-0.04262795
180	0x3d503479	0.05083129
181	0x3ef1cc90	0.4722638
182	0x3eba0679	0.36333063
183	0x3d170d9c	0.036878213
184	0x3f6076b4	0.87681127
185	0x3ee980e5	0.4560615
186	0x3c68bf3d	0.014205751
187	0x3efeba60	0.49751568
188	0x3ed76c69	0.42074898
189	0xbda06820	-0.0783236

bias f4 [10]
0	0xbefda064	-0.4953643
1	0xbe0b01a6	-0.13574848
2	0x3dc1e5ed	0.09467683
3	0x3e96f3d0	0.2948289
4	0x3d8dc674	0.069226176
5	0x3ea69fb7	0.32543728
6	0x3dae5200	0.08511734
7	0xbd710ff7	-0.058853116
8	0x3e4d3325	0.20039041
9	0xbe310b23	-0.17289405

weight f4 [10, 10]
0	0xbde54acf	-0.11195909
1	0x3eac37a7	0.3363621
2	0xbf00ecdc	-0.5036142
3	0xbc20acc9	-0.00980682
4	0xbf392751	-0.7232562
5	0x3dfa041c	0.12207815
6	0xbf175714	-0.59117246
7	0x3da56fbb	0.080779515
8	0xbe044769	-0.12917866
9	0xbf79a677	-0.9751963
10	0xbe960f80	-0.293087
11	0xbd991151	-0.07474006
12	0xbdac4b28	-0.084127724
13	0xbf802bf5	-1.0013415
14	0x3e579fcc	0.21057051
15	0xbf031f77	-0.51219887
16	0xbf4dbdbe	-0.8036765
17	0x3e0d7f6d	0.1381814
18	0x3ecdcd8f	0.4019589
19	0x3c2c3394	0.010510344
20	0xbe98ace1	-0.29819396
21	0x3e70977e	0.2349529
22	0x3deebfa7	0.116576485
23	0xbf1b6022	-0.6069356
24	0xbe875c0f	-0.26437423
25	0xbef0a306	-0.46999377
26	0xbeed9688	-0.4640391
27	0x3f127c40	0.5722084
28	0x3e9ac661	0.30229476
29	0xbdde633d	-0.10858772
30	0xbde79ec8	-0.11309582
31	0x3dbb4038	0.09143108
32	0x3e8b2cc5	0.27182594
33	0xbe824ef3	-0.25450858
34	0xbe14df19	-0.1453823
35	0x3d14deb0	0.036345184
36	0xbe9dd88c	-0.30829275
37	0xbdf1915c	-0.11795303
38	0xbdd82bf0	-0.105552554
39	0xbcf69480	-0.030100107
40	0xbefe8b1e	-0.49715513
41	0x3eb8918d	0.36048546
42	0xbdccee0f	-0.100063436
43	0x3e418ea0	0.18902063
44	0xbe2729dd	-0.16324563
45	0x3edbf6ee	0.4296183
46	0xbdab2d02	-0.08358194
47	0xbcad9ee4	-0.021193929
48	0xbec3fb3d	-0.38277617
49	0x3d53d0d9	0.051712845
50	0x3dd48899	0.103776164
51	0xbea9d251	-0.3316827
52	0x3ee429ca	0.44563133
53	0x3ec6b064	0.3880645
54	0x3e94f197	0.29090568
55	0xbe0da5fe	-0.13832852
56	0x3eb37056	0.35046643
57	0xbe6ab756	-0.229215
58	0x3dd87700	0.105695724
59	0x3f2acbe4	0.6671736
60	0xbddd4b17	-0.10805338
61	0x3e8bf93d	0.2733859
62	0xbdd15698	-0.102215946
63	0x3ed38e87	0.41319677
64	0x3e98a0f4	0.29810297
65	0x3f082282	0.53177655
66	0x3e6bff66	0.23046646
67	0xbf12d6d3	-0.57359046
68	0xbe2ab797	-0.16671596
69	0x3ddb5648	0.10709816
70	0x3e13ce1a	0.1443409
71	0x3df646c4	0.12025216
72	0x3dfe95f5	0.12430946
73	0x3e4ca6cc	0.19985503
74	0x3cc71059	0.024299787
75	0xbca49e9b	-0.02009516
76	0xbe150e83	-0.14556317
77	0xbd8da91b	-0.0691702
78	0xbe5f139b	-0.21784823
79	0xbe78e51a	-0.24306145
80	0xbe77bea2	-0.24193814
81	0x3e0415bc	0.12898916
82	0x3e0b5b80	0.13609123
83	0x3e71e525	0.23622568
84	0xbe5f679f	-0.21816872
85	0xbe97c83c	-0.29644954
86	0xbe774284	-0.24146467
87	0x3ee4e74f	0.44707724
88	0x3e226f5a	0.1586279
89	0x3eb1f0f6	0.3475415
90	0xbe9842ba	-0.29738408
91	0x3d7b3d98	0.061338037
92	0x3cf0ac50	0.02937904
93	0x3dfb8a56	0.12282245
94	0xbeaf9fcd	-0.34301606
95	0xbe1d0585	-0.15334137
96	0x3e327bab	0.17429988
97	0xbe5d0942	-0.21585563
98	0x3e518a6f	0.20462964
99	0x3dc3d511	0.095621236

bias f4 [10]
0	0x3db9aedb	0.09066554
1	0xbe4748bf	-0.19461344
2	0xbbd44b01	-0.0064786677
3	0xbe33c8c7	-0.17557059
4	0x3eb81a90	0.35957766
5	0x3df6688d	0.1203166
6	0x3cf4eb50	0.029897362
7	0xbeacbe18	-0.3373878
8	0x3e634d1a	0.2219738
9	0xbeb36519	-0.3503807

weight f4 [2, 10]
0	0xbe9e452d	-0.30912152
1	0x3f18b532	0.5965148
2	0x3e26656a	0.16249624
3	0xbdc4fae8	-0.09618169
4	0xbe92c145	-0.28663078
5	0x3e907770	0.28216124
6	0xbe37a613	-0.17934446
7	0xbb8d9ae1	-0.0043214415
8	0x3e31e01d	0.17370649
9	0xbd4058ed	-0.046959806
10	0xbe998d4d	-0.29990616
11	0xbeaa3b0c	-0.33248174
12	0xbeadeb08	-0.33968377
13	0x3e7cb0aa	0.24676767
14	0x3dd37702	0.10325433
15	0x3e7d6690	0.24746156
16	0x3eb7c8e0	0.35895443
17	0x3ac16a1a	0.0014756352
18	0xbe427ad1	-0.18992163
19	0xbe88f0ae	-0.26746124

bias f4 [2]
0	0x3de81e3a	0.1133389
1	0xbe46dc2f	-0.19419931
