mediapipe_crop_estimate/mlp/rotation.pt (torch, 11737 bytes, 5 tensors)

weight f4 [10, 19]
000000 2f 6c 51 3e 31 90 08 3f 92 92 70 be 78 d6 29 bf
       0.20451425 0.5334502 -0.23493412 -0.6634288
000010 60 3a e0 3e fb fd 94 3e 9c b6 1e be 59 c5 a9 bc
       0.43794537 0.29100022 -0.15499347 -0.020723986
000020 a4 46 b7 bd 47 0a a4 be c3 70 c3 be 2c d2 35 bd
       -0.089490205 -0.3203909 -0.38171968 -0.04438989
000030 13 19 aa be a6 52 d1 be 06 8f b3 3d 6b 54 3f bd
       -0.33222255 -0.40883368 0.08767514 -0.046711367
000040 0e af 46 be 3a 23 e3 3c b9 99 73 3e fb 0f 0f be
       -0.19402716 0.027726758 0.2378911 -0.1397094
000050 be 61 47 be cc 00 82 3d 64 d2 fa 3d e4 d4 33 be
       -0.1947088 0.06347808 0.1224716 -0.1756168
000060 ab 58 3d be 4b 89 16 3e 1c e1 a9 3d f7 3e 0c 3d
       -0.18490855 0.1470081 0.08294889 0.034239735
000070 6c 07 f5 bd 38 d5 13 3e d5 d6 41 3e 91 d2 91 3b
       -0.11964306 0.14436805 0.18929608 0.0044501503
000080 52 35 0c be 9b f6 26 be 32 c8 69 3e c5 ca 09 be
       -0.13692215 -0.1630501 0.22830275 -0.13456257
000090 a3 cd fa 3c cf ce aa bd 55 73 7f 3e d6 ec 2a 3f
       0.030615633 -0.08340227 0.2494634 0.6676763
0000a0 56 d2 da be a8 ff 19 bd 22 29 2e 3e b7 0c 2c bd
       -0.427386 -0.03759733 0.17007878 -0.042004313
0000b0 fc 62 3a bf 84 e3 83 bd 87 3e 9e be 08 3d 1d 3e
       -0.7280729 -0.064398795 -0.3090708 0.15355313
0000c0 bd 30 f5 bd d6 ce 26 3e 25 92 a0 3e af 63 0c be
       -0.11972187 0.16289839 0.313615 -0.13709901
0000d0 b6 d0 d1 3e 45 ca b9 3e 34 a2 f8 be c8 03 4c 3e
       0.40979546 0.36287132 -0.4856125 0.19923317
0000e0 65 55 71 be 3e 47 61 be 80 c4 2a be 84 db 21 bd
       -0.23567732 -0.21999833 -0.16676521 -0.039515987
0000f0 b0 d6 6c 3c 92 10 69 be f9 08 54 be 22 4a bd 3d
       0.014455482 -0.22760227 -0.20706548 0.09242655
000100 42 27 cb bd cc 6e 42 3d 88 d2 29 bd 12 81 e9 3d
       -0.09919597 0.047468945 -0.041460544 0.11401571
000110 58 ef ca 3c 85 e3 52 3e 44 b0 2a 3d 50 a0 5b be
       0.024772331 0.20594604 0.041672006 -0.21447873
000120 12 82 14 be 36 f1 8f 3d 7a 87 e3 bd 38 a6 ca 3c
       -0.14502743 0.07028429 -0.111098245 0.024737462
000130 11 0e 7c 3e a0 ab 80 3e c7 1d 7e 3e 2f 57 4f 3e
       0.24614741 0.2513094 0.24816047 0.20248102
000140 cf 33 16 3f 53 83 97 be 2f c3 7d 3f 47 c2 2d be
       0.58672804 -0.2959238 0.9912595 -0.16968642
000150 df a4 56 3b c5 40 8a bd 1b cf 74 be 41 62 a1 bc
       0.003275208 -0.06750635 -0.2390713 -0.019700171
000160 de 22 d9 be eb 6a b0 be 28 46 9e bc 33 be 5c be
       -0.42409414 -0.34456572 -0.019320562 -0.2155693
000170 82 25 e1 bd b5 44 ab 3d 92 1f 5f 3e 21 c2 07 bd
       -0.10993482 0.08362714 0.21789387 -0.03314412
000180 40 94 da 3e 6f 1f 25 bf 47 19 cb 3e 72 dd e7 3e
       0.4269123 -0.6450109 0.39667723 0.45286137
000190 cd de 08 3f 00 22 4c 3e c9 b4 d6 3d c1 e6 ed bd
       0.53464967 0.19934845 0.10483701 -0.116162784
0001a0 7f d1 0e 3e 00 8d 03 be 0a d7 89 bd 8d a9 d8 3e
       0.13947104 -0.12846756 -0.067304686 0.42316857
0001b0 7d 46 d2 be 1e 3e c0 3d 68 f0 78 bd b7 2b d5 be
       -0.41069403 0.09386848 -0.060776144 -0.41634914
0001c0 a8 f9 6e 3e 3c ae 8b be 84 13 cf 3e e2 03 01 3e
       0.23337424 -0.27281368 0.40444577 0.12599137
0001d0 f9 44 5a 3e 0b 5d 1b bf e4 b5 eb bd c4 aa 9e 3e
       0.21315373 -0.6068885 -0.11509302 0.3098966
0001e0 99 8c 90 bd e8 50 f2 bd 4d 70 22 3e 84 20 a5 bd
       -0.07058067 -0.11831838 0.15863152 -0.080628425
0001f0 29 46 cb bd 2e a4 fb bd 21 0c c8 bc be 84 07 3d
       -0.09925491 -0.12287174 -0.024419846 0.033085577
000200 9b 6b 10 bf c5 33 b4 3e 2b 23 1e 3e b7 5f d3 bc
       -0.5641419 0.35195747 0.15443103 -0.025802476
000210 76 9c c4 3e ca d7 eb 3b 69 b5 f6 3e 6b 5e 3d 3e
       0.3840062 0.007197355 0.4818528 0.18493049
000220 3f f7 8d 3e b0 24 13 3f 6f 25 2d 3f 1d 25 a9 3e
       0.27727696 0.57477856 0.67635244 0.33036128
000230 fc d1 ba 3c 9a 57 5a 3a 1e e6 4f bd 06 4b c5 be
       0.022805206 0.00083290937 -0.050756566 -0.385338
000240 8f 63 bc be df 17 97 3e e1 6c 28 be 54 71 ac be
       -0.36794707 0.295104 -0.16447784 -0.33680212
000250 be 51 30 be 5a 18 02 bf 44 f6 15 be ad bf 07 bf
       -0.17218682 -0.5081841 -0.14644724 -0.5302685
000260 2c bc ee be da 70 6a bd d2 cf 4c 3c a1 d9 94 be
       -0.4662794 -0.05723653 0.01250072 -0.29072288
000270 1d b5 b9 be 45 e8 57 bd 40 f1 58 3f 0a bb b4 bc
       -0.3627099 -0.052711744 0.8474312 -0.022061843
000280 50 df 94 3e 6d 9c 4d 3d 2e 9f 8a bd 1a 7b 8e 3d
       0.29076624 0.050198007 -0.06768642 0.069570735
000290 00 27 b5 be 58 9a a3 3d da ac ce bd fe dc 12 bf
       -0.35381317 0.07988423 -0.100915626 -0.5736846
0002a0 11 28 03 3f 73 d1 01 be 9f ce 3a bd 4a 9e 6d be
       0.5123301 -0.12677555 -0.045607205 -0.23204914
0002b0 e6 0b 00 be 39 5e d8 3c 7e e7 31 be 42 8a 60 3d
       -0.12504539 0.026412116 -0.17373464 0.054819353
0002c0 ff 4e 3f bc ea 69 3f be 49 2c 47 3e 73 fb 37 be
       -0.011676549 -0.18692747 0.19450487 -0.17967014
0002d0 72 ee 74 bd fa 25 16 be 4e af a2 3d 82 7f 57 3e
       -0.05979771 -0.14662924 0.07943593 0.21044734
0002e0 d9 89 ef bc 91 39 a7 bd 5d 5d 3d be d7 79 bf 3d
       -0.029240536 -0.08165277 -0.18492647 0.09349411
0002f0 19 17 1f be d3 f0 3f 3d
       -0.15536155 0.046860527

bias f4 [10]
000000 3f 14 46 bd be 27 c1 3d c9 00 b7 3a a2 85 2c be
       -0.048359152 0.09431408 0.0013962026 -0.16847852
000010 93 5b b4 be 94 00 03 3e a7 13 1e be 92 09 d3 bd
       -0.35226116 0.1279319 -0.15437184 -0.1030456
000020 a1 13 f2 3e d3 6c ad bd
       0.472806 -0.08468022

weight f4 [10, 10]
000000 86 de c4 bd 5f 6b 34 3e 76 e2 b8 3e 0d da 50 be
       -0.096127555 0.17619084 0.36110276 -0.2039568
000010 79 11 78 be 1e 80 bf bd ff 55 cf bd 98 33 8a 3e
       -0.24225415 -0.09350608 -0.10123824 0.26992488
000020 fb 91 69 3e 55 6e d1 3d ca e3 69 3d b3 14 9f 3e
       0.22809593 0.10226122 0.057102002 0.3107048
000030 5e 09 c4 3e 4c bd b0 3d c7 b6 2a bf fa bc bc bd
       0.38288397 0.086298555 -0.66685146 -0.09215732
000040 05 14 0c 3e af 5b f1 3e 38 74 e9 3e 7d 8b cc bd
       0.13679512 0.47140262 0.4559648 -0.09987543
000050 8e 25 fb b9 4d 86 d3 bd f4 20 1c 3f 68 bc f0 bd
       -0.0004790243 -0.1032835 0.6098778 -0.11754686
000060 93 69 3b bf ad 9b b6 3e be 58 b2 bd 2e 0a 5e 3f
       -0.7320797 0.35665646 -0.087083325 0.8673428
000070 83 83 52 be 20 39 98 3d 13 71 85 3e 5d af fc 3c
       -0.2055798 0.07432771 0.2606283 0.030845338
000080 bd 9f 03 3f 58 65 e7 3d 86 9e 5b bf 53 b3 03 bf
       0.51415616 0.11298627 -0.8578876 -0.514455
000090 b7 64 aa be 2c e4 8b 3e e6 66 88 3e 8c d2 39 3e
       -0.33279964 0.2732252 0.26641005 0.18146724
0000a0 c9 03 06 3f 9b c8 e9 3d 5f 6b 10 3f b8 c5 52 3d
       0.52349526 0.114152156 0.56413835 0.05145809
0000b0 d2 01 e4 3e 19 70 75 3e ca 4f 9f 3d 64 fb 98 bf
       0.4453264 0.23968543 0.077788904 -1.1951718
0000c0 67 d5 0d bf 15 4e a1 3e 19 b1 4a be 20 b6 1c bc
       -0.5540375 0.31504884 -0.1979412 -0.009564906
0000d0 55 ac c2 be ec 95 9c bd c6 50 8f 3e e2 c4 76 bf
       -0.38022104 -0.07645783 0.27991313 -0.9639417
0000e0 59 61 87 3e 50 9c 43 3d 42 2b 06 3f c0 bc c3 bc
       0.26441458 0.047756493 0.52409756 -0.023893714
0000f0 da 60 89 3c 68 57 5e be 89 99 c6 bd fe e0 de bd
       0.016769815 -0.2171303 -0.09697253 -0.108827576
000100 21 78 8a 3e 2e c3 32 3e 25 49 26 3f 90 d7 95 3f
       0.27044776 0.17457268 0.6495536 1.170641
000110 72 00 0c c0 e3 32 52 be e2 d0 37 be 4a 53 8d be
       -2.1875272 -0.20527224 -0.17950776 -0.27602607
000120 21 a7 88 ba 75 71 14 be a8 ee ef bd c4 39 23 bd
       -0.0010425785 -0.14496405 -0.11715442 -0.03985001
000130 67 49 ac 3d d3 c2 8f be 20 f7 15 bd 09 7f 94 3e
       0.08412438 -0.28078327 -0.03661263 0.2900317
000140 81 c1 b4 bd e5 29 95 3e 5a 4f c5 be c3 3d 8a 3e
       -0.088259704 0.29133525 -0.38537103 0.27000245
000150 66 41 59 3f a5 e5 ba bf b8 c3 99 bd ff 62 27 3f
       0.84865415 -1.4601332 -0.075080335 0.6538543
000160 4d 30 c4 bd da 83 5e bc 66 0d 75 3d 6a 21 aa bd
       -0.09579525 -0.013581241 0.05982723 -0.083071545
000170 ef 81 3c bf 6e f7 38 be 17 f5 9e 3f eb 3c 52 bf
       -0.7363576 -0.18063137 1.2418545 -0.82124203
000180 aa 38 b2 3e cd 25 38 3e 26 43 33 3e 3a 6b 71 3e
       0.34808856 0.1798317 0.17506084 0.2357606

bias f4 [10]
000000 83 08 58 3e ac c2 c4 3e ad e4 ff bd c8 60 9e 3e
       0.21096997 0.38429773 -0.12494788 0.30933213
000010 c3 89 54 3e 3d b9 44 3e 07 ac b6 be 3e eb b4 bd
       0.20755677 0.19211288 -0.3567812 -0.088339314
000020 6c 02 25 3e 88 6f 10 3d
       0.16114205 0.035262614

weight f4 [1, 10]
000000 ce 63 b0 3d e3 d7 81 3e cb 64 3f 3f ca 68 ce 3e
       0.08612786 0.2536002 0.7476317 0.40314323
000010 9a 4f 36 bf c7 ec 7e bf 80 07 e2 3f 1d 26 9f bc
       -0.7121521 -0.99580044 1.7658539 -0.019427354
000020 8f 75 9d bf fc 28 5b bf
       -1.2301501 -0.8560941
