mediapipe_crop_estimate/mlp/size.pt (torch, 11325 bytes, 5 tensors)

weight f4 [10, 19]
0	0x3e82b481	0.2552834
1	0xbdef2039	-0.11676068
2	0xbdc7b59b	-0.09751435
3	0x3cf3e0b1	0.029770227
4	0x3f553523	0.83284205
5	0xbe18ab74	-0.14909154
6	0xbe13e800	-0.1444397
7	0x3dd74742	0.10511638
8	0x3e13416a	0.14380422
9	0x3d5503f2	0.052005716
10	0xbed9a29d	-0.42506877
11	0x3ed3bc27	0.41354486
12	0xbd575408	-0.052570373
13	0xbe9b9de8	-0.3039391
14	0xbde8f347	-0.113745265
15	0x3d4bd07a	0.049759366
16	0xbd45b39b	-0.04826699
17	0xbe238f45	-0.15972622
18	0x3e2e098e	0.16995832
19	0x3dc86f63	0.0978687
20	0xbef615f3	-0.4806362
21	0x3e176261	0.14783622
22	0xbe9d0b1e	-0.30672544
23	0x3b80a8e1	0.003926382
24	0xbf0c4938	-0.5479922
25	0xbe22b3ed	-0.15888949
26	0xbd8a37f5	-0.06748954
27	0x3e765e61	0.2405944
28	0x3e05eb79	0.13078107
29	0xbbfe9964	-0.0077697504
30	0xbd41050c	-0.047123954
31	0xbc9f063f	-0.019412158
32	0x3eabc912	0.33551842
33	0x3dc80cfd	0.09768102
34	0x3e36b667	0.17843018
35	0x3e8563cf	0.2605271
36	0x3e09fc34	0.13475114
37	0xbdd646a3	-0.10462692
38	0x3ec5a625	0.3860332
39	0x3dd74650	0.10511458
40	0xbeab4eaf	-0.33458468
41	0x3e3bd550	0.18343091
42	0xbd8c236f	-0.06842696
43	0xbd633f93	-0.05548055
44	0x3df831e0	0.12118888
45	0xbbb58ce3	-0.0055404766
46	0x3cbaf34a	0.022821087
47	0x3e4b912c	0.19879597
48	0x3c61d969	0.013784745
49	0x3e0742c8	0.13209069
50	0x3e69422d	0.2277915
51	0xbded6600	-0.115917206
52	0x3e00f17c	0.12592119
53	0xbe16f1cb	-0.14740674
54	0x3de0d7c1	0.10978652
55	0x3e1ba632	0.15200117
56	0x3e21d849	0.15805162
57	0xbe6327a4	-0.2218309
58	0x3ddf3cc7	0.10900264
59	0xbe9babc4	-0.30404484
60	0xbf28ff10	-0.66014194
61	0xbf421c97	-0.75824875
62	0x3d99ada0	0.075038195
63	0x3d8f67a0	0.07002187
64	0xbbba238a	-0.005680506
65	0xbbee87c0	-0.0072793663
66	0xbd65fdf0	-0.056150377
67	0x3e23aa0c	0.15982836
68	0x3cb4b9f1	0.02206132
69	0xbd9b7744	-0.075911075
70	0x3e65b496	0.2243217
71	0x3e2613f5	0.1621855
72	0x3e7c179f	0.24618386
73	0x3e96c69e	0.29448408
74	0x3d9d6095	0.07684437
75	0x3dc9bdca	0.098506525
76	0xbdc05d9c	-0.093928546
77	0x3eae02c1	0.33986476
78	0xbe80a6be	-0.25127214
79	0x3e633cee	0.22191212
80	0xbf0f53f0	-0.55987453
81	0xbefdab1c	-0.4954461
82	0x3e2ed3c5	0.17072971
83	0xbe22ad96	-0.1588653
84	0xbe8398f5	-0.25702634
85	0x3d9f3bc5	0.07775072
86	0x3e8e9998	0.27851558
87	0x3eaf3511	0.34220174
88	0xbb6481bf	-0.0034867374
89	0x3e87c36a	0.26516277
90	0x3ea371fb	0.31922898
91	0xbe3d87ec	-0.18508881
92	0xbe38365a	-0.17989483
93	0x3ea9cb83	0.3316308
94	0x3dacec67	0.08443528
95	0xbac48796	-0.0014994021
96	0x3d329dfd	0.0436077
97	0xbd858fca	-0.06521566
98	0x3cffb0ec	0.031212293
99	0x3deafd21	0.11474062
100	0x3e5daf73	0.2164896
101	0xbd00b169	-0.03141919
102	0xbdf41639	-0.11918301
103	0xbe4562de	-0.19275996
104	0xbe3d480b	-0.18484513
105	0x3bf12856	0.0073595447
106	0xbe67cfb6	-0.22637829
107	0xbb101995	-0.0021987904
108	0x3cbd885b	0.023136308
109	0x3e4dc2b5	0.20093806
110	0x3a69d88d	0.0008920513
111	0x3d1559a3	0.036462437
112	0xbe3c3a0d	-0.1838152
113	0x3e21f778	0.15817058
114	0xbcaee6de	-0.02135032
115	0xbe905440	-0.28189278
116	0xbeb3b15b	-0.3509625
117	0x3e7e80a9	0.24853767
118	0xbf2e7096	-0.6814054
119	0x3e77e5ee	0.24208805
120	0x3dc76144	0.09735349
121	0x3e80a088	0.25122476
122	0xbe3947e7	-0.18093835
123	0xbe8ff049	-0.2811301
124	0x3e81284c	0.25226057
125	0xbe0f0d7f	-0.13969992
126	0xbe754857	-0.23953377
127	0x3e24434e	0.160413
128	0x3e71429a	0.23560563
129	0xbd924477	-0.07141965
130	0x3ea2e15e	0.31812567
131	0x3e69e0fc	0.22839731
132	0x3db8d05b	0.09024116
133	0xbde78079	-0.11303801
134	0xbde9e68c	-0.114209265
135	0x3e2caa74	0.16861898
136	0x3e91a83c	0.28448665
137	0x3e36aff8	0.17840564
138	0x3f423fa2	0.75878346
139	0x3e05da4c	0.13071555
140	0x3cc582d8	0.024110243
141	0xbd643ee3	-0.055724036
142	0xbe07e14f	-0.13269542
143	0xbc04b670	-0.008100137
144	0xbe447afe	-0.19187543
145	0x3d738cdd	0.05946051
146	0xbe2f0889	-0.170931
147	0xbf108ace	-0.564618
148	0x3e872e2f	0.26402423
149	0x3deb37b1	0.11485232
150	0xbe10025f	-0.14063405
151	0xbe0a4b9b	-0.13505404
152	0x3d96ee2e	0.07369648
153	0xbf1712e5	-0.59013206
154	0xbe1acaa5	-0.15116365
155	0x3e6118b6	0.21982083
156	0xbf4e655b	-0.80623406
157	0xbe61ebc4	-0.22062594
158	0x3e87f6f7	0.26555607
159	0x3e1b9917	0.15195118
160	0x3db2aa6f	0.08723914
161	0x3d9ea113	0.07745566
162	0x3ed534d8	0.4164188
163	0x3ea3c021	0.3198252
164	0xbe4dab72	-0.20084932
165	0x3ed331a3	0.41248807
166	0x3d40c3ad	0.04706161
167	0x3cd98090	0.026550561
168	0x3ee9e43a	0.45681936
169	0xbd9fba96	-0.0779926
170	0x3d4890b6	0.048966132
171	0x3df8f237	0.12155574
172	0x3e2d2ab6	0.16910824
173	0x3f2b08d5	0.6681035
174	0x3ef2bae1	0.47408202
175	0xbf6140cd	-0.87989503
176	0xbe162915	-0.14664109
177	0x3bcc6e5f	0.006238743
178	0x3d05bfc7	0.032653596
179	0xbe76845d	-0.2407393
180	0x3de33f34	0.110960394
181	0x3e19c016	0.15014681
182	0xbea447fd	-0.32086173
183	0x3e135eaf	0.14391588
184	0x3e98753a	0.29776937
185	0x3e5a083c	0.21292204
186	0x3d174f48	0.036940843
187	0x3e4de5e9	0.20107235
188	0xbe42c549	-0.19020571
189	0xbe317699	-0.17330398

bias f4 [10]
0	0x3cdb0de2	0.026740018
1	0x3e5349e9	0.20633663
2	0x3de057c1	0.10954238
3	0x3ea4349d	0.3207139
4	0x3dba1f89	0.09088046
5	0xbe5018ee	-0.2032201
6	0xbe0e2b05	-0.13883598
7	0x3e55a6d9	0.20864429
8	0x3e36a09f	0.1783471
9	0x3e56c2b6	0.20972714

weight f4 [10, 10]
0	0xbefcedf9	-0.4940031
1	0xbc7b11f9	-0.015324109
2	0x3e12108d	0.14264126
3	0xbc926b24	-0.017873354
4	0xbe83dd6c	-0.2575487
5	0x3e71f103	0.23627095
6	0xbe7c579c	-0.24642795
7	0x3e307589	0.17232336
8	0xbde92e6c	-0.113858074
9	0xbe96713d	-0.2938327
10	0xbe162072	-0.14660814
11	0x3cf26172	0.029587481
12	0xbd623d36	-0.055234157
13	0xbf0d3649	-0.5516096
14	0xbf8898e4	-1.0671659
15	0x3be721e2	0.0070535997
16	0xbe6b24a7	-0.229632
17	0xbe89e700	-0.26934052
18	0x3e7970d7	0.24359451
19	0x3e8f57f3	0.27996787
20	0xbeba062b	-0.3633283
21	0x3dd5eac1	0.104451664
22	0x3c340c9f	0.010989337
23	0x3ef128c2	0.47101408
24	0x3e414c52	0.1887677
25	0xbdc3d7f3	-0.095626734
26	0x3e7473b1	0.23872258
27	0xbf0f28e5	-0.55921775
28	0x3ed19bb7	0.40939113
29	0x3e5d6714	0.21621352
30	0x3ea6dd7d	0.32590857
31	0xbd6ba4eb	-0.057530325
32	0x3de4c214	0.1116983
33	0x3e1324ec	0.14369553
34	0x3eea09eb	0.45710692
35	0xbe23899c	-0.15970463
36	0x3b49924b	0.0030757363
37	0xbfb55c0f	-1.4168719
38	0x3e051961	0.12997963
39	0xbf26d50c	-0.65168834
40	0xbe9c4a54	-0.30525458
41	0xbd8e1917	-0.06938379
42	0x3e090b26	0.13383159
43	0xbdf83daa	-0.121211365
44	0x3e14a689	0.14516653
45	0xbd3b65e3	-0.045751464
46	0xbe6e4fd7	-0.23272644
47	0xbc21bd14	-0.00987174
48	0x3e75935c	0.23981994
49	0xbe92b89a	-0.28656465
50	0xbdb4d2eb	-0.08829292
51	0xbe2c3770	-0.16818023
52	0x3e6427c8	0.222808
53	0xbe9004e2	-0.28128725
54	0xbec42e00	-0.38316345
55	0x3c963c6d	0.01833936
56	0xc01c57f1	-2.4428675
57	0xbf376416	-0.71637094
58	0x3d98ae0b	0.07455071
59	0x3eb35697	0.35027
60	0xbc0c1e98	-0.008552216
61	0x3e8d598e	0.27607387
62	0xbef89d49	-0.485575
63	0x3d0a1f09	0.033721004
64	0xc020a561	-2.510094
65	0xbd27923b	-0.04091094
66	0x3ec54aec	0.38533723
67	0xbebd3efe	-0.36962122
68	0x3dac5ec9	0.08416516
69	0xbec16e4a	-0.37779456
70	0xbde15c36	-0.11003916
71	0xbe3b9431	-0.1831825
72	0xbed1dabb	-0.4098719
73	0x3e2c28d5	0.16812451
74	0x3d1822d2	0.037142582
75	0xbe458263	-0.1928802
76	0x3e56a387	0.20960818
77	0x3f23c309	0.63969475
78	0xbe6a9da5	-0.22911699
79	0x3e9c0ff7	0.3048093
80	0x3ee26fdb	0.44225964
81	0xbf0d3a3e	-0.55166996
82	0x3d80df60	0.062926054
83	0xbcad233c	-0.021134965
84	0x3f589a02	0.8461
85	0xbe827e6c	-0.25487077
86	0x3e2fd96b	0.17172782
87	0x3e61c737	0.2204865
88	0xbe91c2e1	-0.28468993
89	0xbf065dd9	-0.5248695
90	0xbe57dd70	-0.21080565
91	0xbe7067dd	-0.2347712
92	0xbddd5b11	-0.10808385
93	0x3e5a572c	0.21322316
94	0x3e90fcc6	0.2831785
95	0xbe026af1	-0.12736107
96	0x3dbc524b	0.09195384
97	0x3e7add9f	0.24498604
98	0xbeac352b	-0.33634314
99	0xbdccdf9c	-0.100035876

bias f4 [10]
0	0x3d8d4369	0.06897623
1	0x3e8018c9	0.2501891
2	0xbd84ab6f	-0.06478011
3	0x3d954933	0.07289352
4	0xbda563e3	-0.080756925
5	0xbdafa30b	-0.0857602
6	0xbdb49301	-0.08817101
7	0x3e724695	0.23659737
8	0x3e619a41	0.220315
9	0xbdb408fe	-0.087907776

weight f4 [1, 10]
0	0xbd095db9	-0.033536647
1	0xbe3bf46d	-0.1835496
2	0x3eafac84	0.34311306
3	0xbe40b2a9	-0.18818153
4	0xbd864c9a	-0.06557579
5	0xbe87c0d7	-0.26514313
6	0xbe9dcdd6	-0.30821103
7	0x3e975718	0.29558635
8	0x3e907c1e	0.28219694
9	0xbe27ac67	-0.1637436
